backend/app/models/final_autoencoder.pt (torch, 147538 bytes, 12 tensors)

encoder.0.weight f4 [128, 39]
00000000: 7ff9 e43e 88cc 79bc 82c0 0dbf 6e21 943e
00000010: 1f45 bcbd 7721 1d3e e04a afbe bfff f53d
00000020: 45f7 da3e 79b2 b5be 80c0 9c3e f6a0 90bd
00000030: 1a5a 6dbd 6e0c a13e 3faf d8bc 2fbc ee3d
00000040: 5c81 133e af2a 5f3e 455a 0dbd 07ad fbbd
00000050: 7dc5 0b3d 9450 aa3d b3e0 8ebd 09ab bfbb
00000060: cb93 72be 3e6e b6be 5568 3bbd 3dd4 80bd
00000070: a359 81bd 7092 2ebf fc5d b73e ce54 1ebe
00000080: aaf9 2e3d de15 b6bd 98d4 b43d a24e 1a3d
00000090: eeee 94be 9851 103c 53b1 a13e 8d23 9a3d
000000a0: 10ae a13e 03bb c8bd c421 003e 7454 863e
000000b0: 978f 49be 281b 12be a251 c0bd 10f3 bbbd
000000c0: bee0 b93e 100e b1be 99bd 93be 4a8a 3fbe
000000d0: fd82 a3bd 377b ad3d 6c8c 03be 929a c93e
000000e0: 0b33 96bd 8ac1 6bbe e5aa 2e3e de5d 40be
000000f0: d8f6 a43d 1d43 febd f357 8c3d 5f24 af3d
00000100: 70a7 c9bc 7762 97bd dc60 c23e 8b21 acbe
00000110: 8af2 46be 8a2c f1bd 4299 8cbe 4f83 96ba
00000120: 7f0a 873e 3564 5d3d a801 31be 8fb5 083e
00000130: b80e ddbc 04c6 573e bc66 6e3e 2e1f 433e
00000140: a524 f8bd 5b6d 343e 0d47 c5bd 9d64 a63e
00000150: ad04 833e b42f 0c3d e7f9 cc3d 9a7e 1bbf
00000160: 42bd aabd b60a b43e e44c 71bd 0943 c03c
00000170: 8eac bfbb 976e 273d f00f fcbd 4686 04bd
00000180: e6ec 1b3e 9850 cfbd 1099 273d 7f6a 1bbf
00000190: 50c8 a8bb 4f94 043e f93f 0c3e 7e5f 97bd
000001a0: 0603 01be be31 98be 9c17 00be 4796 28be
000001b0: 44ab 80be e548 25be c175 1abd 371c 8dbe
000001c0: c606 3dbd e6d8 60bd 91b5 9d3e 9f89 5ebe
000001d0: da5b 483e 558c 81bd efec 4abe 7249 a8bd
000001e0: 32b9 72bd 640d c73d f37e 91bd 79e4 5dbe
000001f0: 96e2 c3be c722 2bbe b84b 2cbe 36bf 6dbe
00000200: 0f2b 5b3e bdd9 323e 00e0 3dbc 582e 8c3d
00000210: 627a 26be 7853 9dbb 6512 b63c b3ff 4abe
00000220: 4626 85be d930 04bf ffc9 3d3e ac41 2b3e
00000230: d803 d53c 7e57 b03c d89d ddbd e007 7fbe
00000240: fd30 ffbc 50ee acbc f8b8 823e 2b57 233e
00000250: c6fe a03e 2f5f 7ebe 8f95 283e d003 1a3e
00000260: 3aa1 a23e b8ff 753d 12e9 5b3e 1c68 63be
00000270: b051 fa3e 60fe 103c 5eb7 0e3e 9c28 e1be
00000280: 83c9 c73e 1583 b83e 8523 2d3e 5a52 ccbd
00000290: 7f98 e2be 0e69 603e 367c b5be 3b68 5c3e
000002a0: c066 933d 0d01 863e f1d3 26be 53da bc3d
000002b0: 467b 83be 0795 6ebe f29d a8be 21f1 313e
000002c0: 0421 e43e 42f2 6abd 23b1 323d 7e8e 23be
000002d0: 5781 7c3e 587a 863c 2b83 0dbd ed3c b6be
000002e0: 6fd0 a93e 56ec 993e ee84 6d3d a05c e33d
000002f0: 76fe c1bd 4721 383d d3bb 18bc b1a5 313e
00000300: 7104 b0be 50f5 753d eddb 1a3e b8f4 2ebd
00000310: 8538 34bd 40b3 9ebe 77d7 563e acba a5bd
00000320: 01fa 1b3e 3f15 74be e70a da3e 401f 203e
00000330: 8a3b 133c 9b8f 18bf 536a 6dbe 2841 30be
00000340: e86f 543d c97c 823e ca13 a63e 43e0 1b3e
00000350: b79a a1be 7f3f c1be 50ab 2bbe eb1c ac3d
00000360: 816d a43d 56a6 843d ca47 8d3d e952 a63d
00000370: b643 b5bc aa04 a13d 72eb babe 0399 8d3d
00000380: c811 e2be c694 273e 164b d93e 2f0c cc3d
00000390: 13b8 82be 2367 d5be b9be a2be 3a3f bd3e
000003a0: 2490 0b3d b7b2 debd aede 6bbe fbfd 30be
000003b0: 7990 00be e54a c8ba 0e65 35be 5a32 d73d
000003c0: 3b71 f33e 2c8c fdbe 3fc0 103e 178f febe
000003d0: cb79 893e 66e5 213e 8523 15bd b691 7e3e
000003e0: 2a76 40bc cc09 87bc f1e0 683e e319 98bd
000003f0: 09f1 a2bc 3c3c 15be 5735 c03d c894 99be
0.447216 -0.015246518 -0.5537187 0.28931755 -0.09192871 0.15344797 -0.34236813 0.1201167
0.42766777 -0.35487726 0.30615616 -0.07061951 -0.057947256 0.31454796 -0.026450751 0.11656987
0.14404815 0.21793626 -0.034509916 -0.12288862 0.034123886 0.0831615 -0.06976452 -0.0058492464
-0.23689191 -0.35630983 -0.045753796 -0.06290481 -0.06315925 -0.68192196 0.35813892 -0.15462038
0.042718567 -0.088908896 0.088296115 0.037672646 -0.2908854 0.008808516 0.315806 0.07526312
0.31578112 -0.09801295 0.1251288 0.26236308 -0.19683681 -0.14268172 -0.0939057 -0.0917722
0.36304277 -0.3458104 -0.2885559 -0.18705097 -0.079839684 0.08470767 -0.12846535 0.3937574
-0.073339544 -0.23023048 0.17057379 -0.18785807 0.08054894 -0.124151446 0.068527125 0.08551859
-0.024615973 -0.073918276 0.37964523 -0.3361934 -0.19428459 -0.11776073 -0.27460676 -0.0011483225
0.26375195 0.054050643 -0.17285788 0.13350509 -0.026984558 0.2107163 0.23281378 0.19054863
-0.121163644 0.17619841 -0.096326925 0.32498637 0.25589505 0.03422518 0.100086026 -0.60740054
-0.08336879 0.35164422 -0.05891122 0.023469465 -0.0058494275 0.04087695 -0.12307727 -0.032354616
0.15227088 -0.10122794 0.040917456 -0.60709375 -0.0051508322 0.129472 0.13696279 -0.073912606
-0.1259881 -0.2972545 -0.12509006 -0.16463576 -0.25130665 -0.16141088 -0.037709955 -0.2756059
-0.046149038 -0.05489435 0.30802587 -0.21732186 0.19566289 -0.06325594 -0.19816945 -0.082171336
-0.059258647 0.09719351 -0.07104292 -0.21669187 -0.3825881 -0.16712485 -0.1682576 -0.23217472
0.21403144 0.17465873 -0.01158905 0.06844777 -0.16257623 -0.00480121 0.022225568 -0.19824104
-0.26005763 -0.51637036 0.18534087 0.1672427 0.02600281 0.021526095 -0.10821122 -0.24905348
-0.03115129 -0.02110973 0.25531745 0.1595122 0.31444377 -0.24840997 0.16463302 0.15040517
0.3176363 0.060058326 0.21475628 -0.22207683 0.48890448 0.00884971 0.13937137 -0.43976295
0.3902093 0.36037508 0.16908081 -0.09976645 -0.4425697 0.21915075 -0.35446328 0.21524136
0.071973324 0.26172677 -0.16291787 0.092213295 -0.25679988 -0.23299037 -0.32933003 0.1737714
0.4455644 -0.05735994 0.043625962 -0.15972325 0.24658714 0.01641576 -0.03454892 -0.35593358
0.33166835 0.30063123 0.0579881 0.11101651 -0.09472363 0.04495361 -0.0093221245 0.17348363
-0.3437839 0.0600484 0.15122958 -0.04271385 -0.043999214 -0.30996132 0.20980631 -0.080922455
0.15232088 -0.2383623 0.42586443 0.15636921 0.008986363 -0.59594125 -0.2318509 -0.17212355
0.051864535 0.2548583 0.32436973 0.15222268 -0.3156335 -0.37743756 -0.1676457 0.08403953
0.08028699 0.064770386 0.06898458 0.081212826 -0.022127014 0.07862218 -0.36507756 0.0691395
-0.4415419 0.16365346 0.424401 0.09963261 -0.25531062 -0.4168025 -0.31786135 0.369623
0.03407301 -0.10873931 -0.23034164 -0.17284386 -0.12555112 -0.0015281109 -0.1771433 0.10507651
0.47547325 -0.49521005 0.14135836 -0.49718544 0.26850733 0.15810165 -0.036410827 0.24860272
-0.0117469225 -0.016484164 0.22742058 -0.074268125 -0.019890325 -0.14573759 0.09385174 -0.29996324

encoder.0.bias f4 [128]
00000000: 1a83 713d 4854 723b 4ae6 16be 032d 0ebd
00000010: 0a39 b4bf 8def acbc 431f 4ebc 1605 0cbd
00000020: 74e3 70bd 5692 f8bd 3b31 bdbd 3e41 44be
00000030: 52a4 533d d354 18be 70b9 f73c 3fd3 46bd
00000040: b716 27be 2f3d a5be 45ef 11bd 885b dfba
00000050: 0c54 38bd 80c7 cf3d aa32 27be 1b7e 95bd
00000060: 39cd 043e 9435 38bd 3437 073d f068 31bd
00000070: 8f49 403d f257 38bc 5b7a 93be b56a 60bb
00000080: 3a97 383d d963 20be 62da 1a3d f69b 733a
00000090: 1fe6 48bd 9b9b 89bc e029 8ebe 29e4 763c
000000a0: 545b debb 740c 7ebc 8740 5fbf 655f b83c
000000b0: 2902 9e3c 8f3b 213c d9db 55bf b038 abbe
000000c0: fb22 a1be 188f 8c3d df7b 17be 8eb2 843d
000000d0: 134a d5bd a1a2 803d ccd6 453d 8544 c53c
000000e0: ef60 d23d 5326 1abe 28f2 febe f006 353d
000000f0: 1d09 253e aa5a 75bd 239c 93be b8c8 8fbb
00000100: acb2 48be 80fc 1ebe 0dc7 69be c471 073b
00000110: 4c26 cdba 8e37 9bbc 1083 58bd 53e3 453c
00000120: ecec 00be 1114 c0bd 7ee1 16bd 3cec b93a
00000130: 1ef1 9a3d 8823 12be 711a 263b b48a f5bd
00000140: 4153 503d 5c14 bc3d a63e 88bd 847b 153d
00000150: 67e1 1ebd e21f 2d3c 1a8c 6b3d f540 84bc
00000160: 24b6 febc 99b2 7fbe 5507 26ba 03b9 1fbc
00000170: 329e 32be 664b 36bc 022a 71bd 91b7 b73c
00000180: 77db 683c a930 37bf 7f69 d0bc 3b6f e3be
00000190: 37df 763d a25a 68bd 1986 c0be ab6b 18bd
000001a0: a62c 99be fc4a b3be e8c1 9e3c 65d7 38bb
000001b0: 6230 7a3c da06 053d 1db7 063c 83e8 a8bb
000001c0: 64d1 863b 3f01 1d3d 28f4 783d 0374 2bbb
000001d0: a52f 95bd d1fd 71bd 37cf 84bd 733c 493e
000001e0: 370d febd aa8e 14be e5b7 26bd bc55 0a3d
000001f0: ad31 303d 10c7 2f3d 7be9 813b 4320 8ebb
0.05896292 0.0036976505 -0.14736286 -0.034710895 -1.4079907 -0.02111032 -0.012580696 -0.034184538
-0.058810666 -0.12137286 -0.092379056 -0.19165513 0.05167038 -0.14876108 0.03023979 -0.048541304
-0.16317259 -0.32273242 -0.035628576 -0.0017040828 -0.04500203 0.101454735 -0.1632792 -0.07299443
0.12968911 -0.04497297 0.03301163 -0.043312967 0.04694515 -0.011251437 -0.28804287 -0.003424329
0.045066096 -0.15663089 0.037805922 0.00092929543 -0.049047586 -0.016797831 -0.27766323 0.015069046
-0.0067857895 -0.015505899 -0.87207836 0.022506425 0.01928814 0.00984086 -0.83538586 -0.33441687
-0.31472 0.068632305 -0.14793347 0.06479369 -0.10414519 0.06281019 0.04830055 0.024080524
0.10272395 -0.15053682 -0.49794126 0.04419607 0.16116758 -0.059900917 -0.2883006 -0.004387941
-0.19599408 -0.15526009 -0.22829838 0.0020667175 -0.0015651672 -0.018947389 -0.052859366 0.012078124
-0.12590379 -0.09378827 -0.03683614 0.0014184783 0.07565521 -0.14271367 0.002534535 -0.11989346
0.050860647 0.09183571 -0.06652574 0.036494747 -0.03878918 0.0105666835 0.057506658 -0.016144255
-0.03109271 -0.24970473 -0.000633349 -0.0097487 -0.17443159 -0.011126375 -0.058877952 0.022426398
0.014212481 -0.71558625 -0.02544093 -0.444208 0.060271468 -0.05672706 -0.37602308 -0.037212055
-0.29916877 -0.35018146 0.019379571 -0.0028204557 0.015270324 0.032477237 0.008222369 -0.0051546707
0.004114317 0.038331266 0.06077972 -0.0026161678 -0.07284478 -0.05907995 -0.064848356 0.19651966
-0.12404864 -0.14507547 -0.04070272 0.03377317 0.043016125 0.04291445 0.0039646006 -0.004337342

encoder.2.weight f4 [64, 128]
00000000: d46d e53d 44af 1ebd 2dec e73c e390 a33d
00000010: 9f46 14bd 453b 133d 33fd 5c39 dc2f e2bd
00000020: ae17 14be 6c28 ea3d 0922 683d 335b 1f3e
00000030: 8b3f c7bd dba8 dcbd 01f8 7abd 5fb6 2d3e
00000040: 95d5 603e 0018 6b3e d9da 3c3d d729 acbd
00000050: b605 223e d1a6 8dbd f416 833d 59eb 743d
00000060: 7711 05be d7fa 923d 6704 313e 5926 443e
00000070: 0601 4a3c 53a7 95bd ef5a ad3e 291e 31be
00000080: 218e bb3d 596d 17bd 219e c93c 215d 193c
00000090: 17d9 a23d 3a4d de3d 9bf7 793e 8d38 343d
000000a0: 4079 433d f74f 96bd 0fb2 8abd ef15 5cbd
000000b0: 4a9f be3d 4a0e fabd e59c c3bd 252d 04be
000000c0: 5046 06bd a0ec 72bd 2233 273e c717 01be
000000d0: cea4 9a3e e101 8ebe bc70 b4bd 6a4e 90bd
000000e0: 7035 4ebe 64b7 303e 510d 063d f8f7 d3bd
000000f0: 05a7 35bd a27f 9b3d 2b99 813d 0934 9d3c
00000100: 0dee 063d 12e6 5a3d dc56 c8bd 3016 e43d
00000110: b7b1 08bc 91f2 58bd 768b 93be 33e4 0abd
00000120: 9f0f 1a3c 3d6e a73d 37f7 993c 48e0 c6bc
00000130: 092d 83bd bc82 6e3e daee afbc b0ef 1c3d
00000140: e407 a3bd 0ec3 bc3c a245 c43d 74bc 9f3d
00000150: 2e8d 1c3e 5805 8f3d 2358 24be 18c2 5fbe
00000160: ae4d 78bd 882a 46bc 0711 903e 98f2 3c3e
00000170: 4384 f63c 3439 633d 7db2 1b3e b3f8 2fbe
00000180: efd2 1f3e 6a69 54bd edd0 07be fe28 1fbe
00000190: 89ee 293d 5483 26bd 4a06 1f3d 09b6 85be
000001a0: 3441 11bd 8966 633e 8f7d aa3d f332 313e
000001b0: f386 ac3e 71ad e5bd 564c 58bd 6afd 9f3d
000001c0: efc7 143b e47a 28be ad9c 9dbe 197b 983b
000001d0: 3ce6 bc3d 8adf 81bd 7a85 24be dc12 09be
000001e0: 47d2 9e3d ae31 6cbe 8a01 083e d5eb 983c
000001f0: a79d 89be 1b9a fabd e5b6 023e b86e 603d
00000200: 7aff 033c 8579 6a3d 442d 5fbd 4826 263e
00000210: 22a5 a5be 4bda d03d 9e10 3d3e a1f1 1f3e
00000220: d923 573e f4ec c53d b759 3f3d c94d bdbc
00000230: 3bfb 763e 58c3 0fbe d88b fd3d 18b8 263e
00000240: ec33 453d 166d a1be 474d 8d3e db9d 0fbf
00000250: 08af 103e 30ce 473d 4922 b33b aa28 c93d
00000260: f0a5 513d 35fd 00bc e5c6 56be cac9 d7be
00000270: 5eec fd3c bc77 4cbe 01bf 843e f4a4 eabc
00000280: 0171 cb3d 3cf2 c73d 1848 85bd cff7 943d
00000290: 826b 1ebe 3230 f3bd d535 b03e 7f5a 903d
000002a0: 895d 62be 030d 1d3e 93b3 623c 6c4e 12bc
000002b0: 43ac 18be 9e41 233d ab90 58bd c370 1fbc
000002c0: 5b3e d4bc a7e0 31be c07a 893d 6f08 b63d
000002d0: 3b91 543d 865a cf3c 341b a73d 5a78 97bd
000002e0: 1b75 523d 58c3 143e 3a8f 063e 5e0c 0b3e
000002f0: 91d5 e03d ab40 cebd fb87 60be bda5 f2be
00000300: c0ae 6bbe 4011 843d ed4f 18be c9ed ecbd
00000310: 9538 a4bd a55f 33bd 98df c0be 71d9 e13d
00000320: 5e83 ea3c 4395 0dbf f98f debe dd24 f9bd
00000330: 19da 31be 2928 543e 3e89 23be cab5 6abe
00000340: b217 993e 81fb 713d 6e4c 02bf 907e 553d
00000350: cabf 3fbd 7a81 f7bd 5428 993d acb3 4bbe
00000360: 56bb 95be ed77 623e 6d90 24bd 4b85 9fbd
00000370: 4b38 ad3c a5f9 0ebc 6911 e1be 8c87 833e
00000380: 29a5 813e 40a6 833d 79a2 2b3e 3729 1dbe
00000390: 57a9 7b3e 9a4f 04bd c6a8 d63d 5ba7 363d
000003a0: ee12 e23d 70eb 8e3e 88fa 4b3e 94f8 1f3d
000003b0: ec0d 9dbd 98d9 e4bc 2e50 d9be 2ecd 95be
000003c0: 0e94 16be 920a f0bc 33d4 033e 60ef a4be
000003d0: 62a1 83be f93c 7a3e 20ad 1cbe 4b9c 91bd
000003e0: 226e b4bd 955d 3abe 9a4d 853e 5ca0 a03e
000003f0: f21c 6c3c afc3 aa3e 0b86 843d 3ec7 e9be
0.11202589 -0.038741365 0.02831086 0.07986619 -0.036200162 0.035945196 0.00021075159 -0.11044285
-0.14462158 0.11433491 0.056673083 0.15562133 -0.09728917 -0.10774394 -0.06127167 0.169641
0.21956475 0.22958374 0.046107147 -0.08406418 0.15822491 -0.06916583 0.06400862 0.059794758
-0.12994944 0.0717675 0.17286836 0.19155253 0.012329346 -0.07307305 0.3385844 -0.17296661
0.09157968 -0.036969516 0.024611535 0.009360583 0.07951563 0.108545735 0.2441086 0.043999244
0.047723055 -0.07339471 -0.06772243 -0.053731855 0.09307726 -0.12209757 -0.0955141 -0.12907846
-0.0327819 -0.059307694 0.163281 -0.12606727 0.3020386 -0.27735808 -0.08810565 -0.07046206
-0.20137572 0.17257458 0.032727543 -0.10350031 -0.044348735 0.075927034 0.063280426 0.019189851
0.032941867 0.05344207 -0.09782192 0.111370444 -0.008343152 -0.052965704 -0.28817338 -0.033909034
0.009403138 0.08175323 0.018794639 -0.024276868 -0.06405074 0.23292059 -0.021476198 0.03831452
-0.079604894 0.023042228 0.09583594 0.077996165 0.15288231 0.06983441 -0.16049246 -0.21851385
-0.060620956 -0.012095101 0.2813799 0.18451917 0.030092364 0.055474475 0.15204807 -0.17184715
0.15607809 -0.051858343 -0.13263293 -0.15542981 0.04148725 -0.040652588 0.038824357 -0.26115444
-0.035462573 0.22207083 0.0832473 0.17304592 0.33696708 -0.11214722 -0.052807175 0.07812007
0.0022702178 -0.16453129 -0.30783597 0.0046533463 0.09223601 -0.06341465 -0.16066542 -0.133861
0.07754951 -0.23065826 0.13281837 0.018667141 -0.26878092 -0.122364245 0.12765081 0.05479309
0.008056516 0.057244796 -0.054486528 0.1622554 -0.3235255 0.10197886 0.1846337 0.15619518
0.21009769 0.09664336 0.046716418 -0.02310838 0.24119274 -0.14039361 0.12380189 0.16281164
0.04814522 -0.31528538 0.2759802 -0.56100243 0.14129269 0.04878062 0.0054667336 0.09822209
0.05118364 -0.007872869 -0.2097431 -0.4214614 0.030996498 -0.1996755 0.25926974 -0.028643109
0.09933663 0.097629994 -0.065078914 0.07273828 -0.15470698 -0.11874427 0.3441607 0.07048511
-0.22105993 0.15336995 0.013836759 -0.00892983 -0.14909463 0.0398575 -0.05287234 -0.009731474
-0.02590864 -0.17370854 0.06712866 0.08888327 0.051896315 0.02531172 0.081594855 -0.07396002
0.05138121 0.14527643 0.13140574 0.13578936 0.109782346 -0.10070928 -0.21926872 -0.47392073
-0.2301588 0.06448603 -0.1487424 -0.115687914 -0.08018605 -0.043792386 -0.37670588 0.11027802
0.028627094 -0.5530588 -0.43469217 -0.12165234 -0.17368354 0.20718445 -0.15970322 -0.2292091
0.2990089 0.059077743 -0.5089787 0.052122653 -0.046813764 -0.120852426 0.07478395 -0.19892758
-0.29244488 0.2211606 -0.040176798 -0.077890955 0.021145007 -0.008726512 -0.43958595 0.25689352
0.2532132 0.06428194 0.16761197 -0.15347753 0.24576317 -0.032302476 0.1048141 0.044593196
0.11038767 0.27914 0.19919789 0.039055422 -0.07668671 -0.027935788 -0.42443985 -0.29258102
-0.14704916 -0.029301915 0.12873916 -0.3221388 -0.25709063 0.24437322 -0.15300417 -0.07109889
-0.08810069 -0.18199761 0.26035768 0.31372344 0.014411198 0.3335242 0.06470879 -0.45659822

encoder.2.bias f4 [64]
00000000: 4e6a 1ebf 475c fc3d 83a5 6bbe 4852 c23c
00000010: f736 e7bc c221 0fbe 00da f83d f740 d83c
00000020: 8a6d 7c3d 8106 2a3e 5652 183c 6eb0 f03d
00000030: f3ed d93d 7e4f 3f3e 47dc a23c ee8c b43d
00000040: df7b d13d 12ed 81be a3fa 823d 32e6 0d3e
00000050: af1e 8f3e 3140 9c3d e998 a43d ddde 32bc
00000060: 5553 343e 9ac0 eb3d 7914 e33d fc0d 253d
00000070: 00cf ae3d f147 b33d 39e3 de3d b954 013e
00000080: abd9 c73c b554 703d 67c0 383d b69b 6bbe
00000090: c739 babd 8e34 a6bd 30a3 c63d 4bb7 893e
000000a0: d2ad bd3c b829 273e db8e 163e c036 083d
000000b0: 376b 4cbc c525 fbbc c2d6 e1bc 054c 2e3e
000000c0: d9cc 9a3b 01d8 4fbb e529 8b3d f775 1d3e
000000d0: e549 9e3c 0f55 1d3d 31ed b2be 3b1d ff3d
000000e0: abcd 49bf 4d2f ed3d 1307 dbbb 422a 64bb
000000f0: 2f16 cd3d 0fee b7be b4d5 c73b 29da 843d
-0.6188096 0.12322288 -0.23012356 0.023720875 -0.028224451 -0.13977721 0.12150955 0.026398165
0.061627902 0.16604044 0.009296974 0.11752401 0.10641088 0.18682668 0.019880427 0.08815943
0.10228705 -0.25376183 0.063954614 0.13857344 0.27953097 0.07629431 0.08036978 -0.010917393
0.17609914 0.11511345 0.11087889 0.04029654 0.08535576 0.08753956 0.10883183 0.12629975
0.024395784 0.058674533 0.045105364 -0.23008618 -0.090930514 -0.08115493 0.09699094 0.26897654
0.023154173 0.16324508 0.14702933 0.03325534 -0.012476734 -0.030657658 -0.027568225 0.17021187
0.004724127 -0.0031714442 0.067951 0.15377031 0.019322345 0.038411196 -0.34946588 0.12456747
-0.7882945 0.115812875 -0.006684193 -0.0034815227 0.10013997 -0.35923812 0.0060984734 0.06486923

decoder.0.weight f4 [128, 64]
00000000: 7cc7 01bf 8d4a 21bf b125 96bf 3458 eabe
00000010: c5f7 07bf 4370 883d b5a3 afbe 5740 3d3f
00000020: 2131 60bf 9584 9bbe c24f 58be 04ef 49bc
00000030: 4d8a 0cbf bdf9 25bf 8efd 2dbd ba39 d4bc
00000040: e364 80bf e7c8 c0be dddf ebbd 31b0 1b3d
00000050: b93f 25bf ac1b 1c3f 5145 9dbe 96cd 97be
00000060: d460 f43e b344 903d 4e7a 543e ec69 87be
00000070: 37f0 28bf b9be 393e 1347 85bf f295 5ebe
00000080: 74b8 cabf c45c 03be e6cf 603e 6961 fc3d
00000090: 8fa8 27bf ba14 85bb 7bad 66bf 0f64 58bf
000000a0: 974c b0be 8b8a 88bd 351c 393e 5a22 643d
000000b0: a1ac 2a3f 9daf d2bb f4c8 c9be 98d0 c53e
000000c0: fcb2 8fbd 1ac3 3dc0 3221 e9be f5f6 493f
000000d0: 5632 2b3e e243 75be a5ae 703f 14ae f93e
000000e0: 76cf 683e 103e 313e 81ff f23e bba6 013e
000000f0: 7791 d23e c18a 59be c005 6abf 23a0 d1bf
00000100: 722e 6f3f 784e d9be f821 50be 6900 bebe
00000110: 6ca1 3d3d 5e2a e3bd c4db 6dbf 4fa2 1cbe
00000120: 1f1d 42bf 969d 683e 1745 cabd e88c 02bf
00000130: d89a a9bd c28f 5dbf 801e b43e cae9 0abf
00000140: cba1 5dbe 69d5 8b3e 2b8e a1bd a78b c43e
00000150: 9c5b 1f3e c98a 74bf 4ec0 333f a7a2 973e
00000160: 006a a0be 559f d23e 5434 253c 4757 0c3d
00000170: 3d1b 9c3d 5eef 183f bb73 26bf 4e57 9abd
00000180: 8ccf 163f af4d 9cbe 5797 44bb aee3 72bf
00000190: 419c 53bf b3f8 81bf 3f82 28be a0e2 91bf
000001a0: cfa4 153e bd86 b13e 731f 8f3e f52f 0fbe
000001b0: f923 033f bde8 5fbf 8e36 033f 5575 8a3e
000001c0: 0664 b3bf ba57 d83d 0b6c 09bf 9ced bbbe
000001d0: 1a2f 56be 849c 01be 78a0 03bd 4fc5 8abd
000001e0: 4f8c e3be b79d 86bf 0134 ce3e 91aa 05bf
000001f0: 4305 843f e8df ce3e a98b 423f d0f3 01bf
00000200: 8242 f43e 507b 38bd 8834 e2be 045f 7f3f
00000210: 9b1c b1bd 434d 9c3e e2e2 33bf 781b 2b3f
00000220: 34b0 14be 4267 063e 5b42 573d 093d d6be
00000230: 3759 0bbf fa28 323f eced afbf 793f 06be
00000240: affa 8bbd 9983 3ebf 4c29 4fbd af65 bfbe
00000250: b09b 9f3d cd05 1bbe f25f 89be 3dd6 0abd
00000260: 1955 a43d 88df 78bf 72e9 e03e ea79 5ebe
00000270: d034 8ebd 6bab cbbc 065e 0dbd 189d 3dbe
00000280: ac2c 89bf dd5c 403e e693 ddbe c50a 993e
00000290: 5bab 0b3f 6f62 2fbf 43a2 9e3e 2b98 873e
000002a0: 6e3b 2ebe bb40 2bbe 36a0 94bf 7c69 043d
000002b0: 7c04 663e d392 aabf a087 1dbf 94a7 ecbb
000002c0: 5023 383e 286a b53e 0906 2c3f 3c95 b13e
000002d0: b09e f8bd a0f6 823e 77fc 613e 3290 67be
000002e0: 7e92 59be a268 c9be 5a82 40bd 2bdc 8fbc
000002f0: a250 9fbd 500c e2be 5f41 b5bb b5e8 6cbe
00000300: 56ed bebf f069 3c3e 7a47 bfbf 41e7 043f
00000310: 6dcc 56bd 260f 423f 9843 3c3d 6c6c 7cbe
00000320: 26c5 0ebe 245e 0bbe 20a5 f03e 6510 96be
00000330: b93b 00be 9f43 ce3e e0cd e8be 558a 80be
00000340: f79e 693f 0e2f 6dbe 9787 eb3d 05f5 9e3e
00000350: 91a8 a8bd 09d2 cbbe 67b3 b13d 2b2e cbbe
00000360: f943 a73e d2a4 0abe 14f6 043f b3c1 30bf
00000370: 5ea2 863d 7b89 8cbe 5e4c 4f3e f7fc e2bb
00000380: 9769 48bf ab06 ed3e 6066 e6be 9be8 553f
00000390: 96e4 f7bf 7c30 e8bd ccfb bd3e 0cb2 44be
000003a0: df18 233e b5d1 b1bd 448c b53d ef2c cf3d
000003b0: 1827 c0bf 3440 25bf b7b6 d9be 2d43 05bf
000003c0: fcb4 09be 78ef d03e f7bf 303f e170 c3be
000003d0: fd19 4dbd c2c0 81bf a084 67bf f4e3 3c3e
000003e0: 8ccd 9bbe 018c 03bd b0fc ac3c e613 26bd
000003f0: d895 61be 9ba9 23bf ac5c 58bf 6df6 44be
-0.50695014 -0.6300438 -1.1730253 -0.4577042 -0.5311244 0.06662037 -0.34304586 0.739263
-0.87574965 -0.3037459 -0.21124175 -0.012325052 -0.5489853 -0.64834195 -0.042478137 -0.025906432
-1.0030788 -0.37653276 -0.11517308 0.038009826 -0.6455036 0.60979724 -0.30716947 -0.29649037
0.47730124 0.07044353 0.2074978 -0.26448 -0.6599154 0.18139161 -1.0412315 -0.21736887
-1.5837541 -0.12828356 0.21954307 0.12323267 -0.65491575 -0.0040613087 -0.9010846 -0.8452768
-0.34433433 -0.0666705 0.18077166 0.055696823 0.6666966 -0.006429626 -0.39411128 0.38635707
-0.070165604 -2.965033 -0.4553314 0.7889245 0.1671842 -0.23951676 0.94016486 0.48765624
0.2273539 0.17308831 0.4746056 0.12661259 0.41126606 -0.21244337 -0.91415024 -1.6376995
0.93430245 -0.4244268 -0.20325458 -0.37109688 0.046296522 -0.11092065 -0.9291346 -0.15296291
-0.75825685 0.22716364 -0.09876459 -0.50996256 -0.08281487 -0.8654748 0.3517952 -0.54262984
-0.2164375 0.27311257 -0.078884445 0.38387796 0.1556229 -0.9552427 0.7021531 0.2961628
-0.31330872 0.41137186 0.010083277 0.03426292 0.07622383 0.59740245 -0.6502034 -0.07536183
0.5891044 -0.30528018 -0.0029997432 -0.9487866 -0.826603 -1.0154022 -0.16455935 -1.1397285
0.1461365 0.3467311 0.2795368 -0.13983138 0.51226765 -0.87464505 0.5125512 0.27042642
-1.40149 0.105636075 -0.53680485 -0.3670472 -0.20916405 -0.12657362 -0.032135457 -0.06775915
-0.44442984 -1.0516881 0.4027405 -0.5221339 1.0314106 0.40405202 0.75994354 -0.50762653
0.4770699 -0.045039475 -0.44180703 0.9975436 -0.08648034 0.30527696 -0.7026807 0.6683879
-0.14520341 0.13125327 0.052553516 -0.4184344 -0.54433006 0.69593775 -1.3744483 -0.1311015
-0.068349235 -0.7441955 -0.050576493 -0.37382266 0.07793367 -0.15138932 -0.26831013 -0.03389572
0.080240436 -0.9721608 0.43928105 -0.21726194 -0.06943667 -0.024862012 -0.034513496 -0.18516958
-1.0716758 0.18785425 -0.432769 0.2989103 0.5455834 -0.6850957 0.3098317 0.26483282
-0.17014858 -0.16723911 -1.1611392 0.03232716 0.22462648 -1.3326057 -0.6153507 -0.0072221253
0.1798222 0.35432553 0.6719671 0.3468417 -0.12139642 0.25578785 0.22068964 -0.226136
-0.21247289 -0.3933764 -0.046999313 -0.017561039 -0.07779051 -0.4415002 -0.0055314745 -0.23135646
-1.4916179 0.18399787 -1.4943688 0.51915365 -0.05244105 0.75804365 0.0459629 -0.24650735
-0.13942394 -0.1361013 0.4700098 -0.29309383 -0.12522782 0.40285966 -0.4546957 -0.2510554
0.91258186 -0.23162481 0.11500471 0.3104631 -0.082352765 -0.39808682 0.086767964 -0.3968366
0.32669047 -0.13539436 0.51937985 -0.6904556 0.06573938 -0.2744864 0.20243976 -0.0069271284
-0.7828612 0.4629415 -0.4499998 0.8355805 -1.9366634 -0.11337373 0.37106168 -0.19208544
0.15927456 -0.086825766 0.08864644 0.10115992 -1.501193 -0.6455109 -0.42522213 -0.5205563
-0.13447946 0.408077 0.69042915 -0.38172057 -0.050073612 -1.013695 -0.90436745 0.18446332
-0.30430257 -0.03211594 0.021116585 -0.04054632 -0.22029817 -0.6393067 -0.84516406 -0.19234629

decoder.0.bias f4 [128]
00000000: 155c 393f 5e4d f0bd 9610 0dbd 7913 8a3e
00000010: f4f0 e23d 2086 58be f624 a03e dcd6 6abe
00000020: a658 253e dd6c b13e 2831 8f3e 3122 8abd
00000030: f7b7 183f 8e31 043f f73c 953e fe27 c5bc
00000040: 092d b43d 9914 683c fe44 113f 0d6d b13f
00000050: b55b 063d d0cd f83e ebeb 933e 765a e13e
00000060: a5b8 a53e 25e0 103f a123 043f 2740 d13e
00000070: f612 96be 220c 2d3f a566 983f 9119 093f
00000080: 4ee8 ea3e c2e9 273d 2c2f 223f 699c c33e
00000090: 8f8b 293f 5aba be3e d404 a33e 512a 87be
000000a0: b328 aebe 136b fbbe 0a69 bc3e 034d d73e
000000b0: 8388 af3d 04d2 e33f 3082 473e ea01 353e
000000c0: 0c55 a03e 21ea b2be e752 37bf 90f9 13bc
000000d0: d9b5 903f 044f 253f 0317 ed3e 9eee ef3a
000000e0: c301 af3d aca3 293e e46a 3c3f aa99 17bf
000000f0: 76ee b53f 9fbb d73e dba0 073e 97f8 cb3f
00000100: 09b0 5d3f e747 953f e73d 14bf 9252 3f3f
00000110: d224 463f c2ca 543d 0fa1 56bf 8efe 243e
00000120: 212d a93e 2e33 173f 2da6 873e a20b b9be
00000130: c1ab 8c3d 07f6 923f ea67 973e cdca 3abf
00000140: e283 08bc 75e4 863f f95f 4c3e a977 2a3f
00000150: 15e0 6d3f 4501 5f3f 803b 783f 53d2 d1be
00000160: 894c 03be 3d4e 71be 4de0 2a3d 6a1d d1be
00000170: 4aed 2dbd cd26 bdbc f0fc 113f 4825 c53e
00000180: b14f e1be f78e ee3c 1277 68bd c86a 7e3e
00000190: 87a2 993e 1b76 053f 7379 d73c e96a f93e
000001a0: f44c 023f ac6a d13e ca35 f73e 223a 2d3f
000001b0: 459c a23e 31f4 273f 8fb6 923e 49fb f03e
000001c0: 6a54 493f cd8a 143f b74e e33d bbff c23c
000001d0: 2f24 5bbf 7a42 193d 7b44 223e 709e 793e
000001e0: 951c 4bbd 6a67 0f3f a080 be3e c1d9 b53e
000001f0: 81d9 1d3f 3121 8d3e da5d b9be 5aef 213f
0.7240613 -0.117335066 -0.034439646 0.2696798 0.110811144 -0.21144915 0.312782 -0.22933525
0.16147098 0.3465337 0.2796719 -0.06744803 0.5965571 0.51638114 0.29148075 -0.024066921
0.08797652 0.014165067 0.567459 1.3861405 0.032802302 0.48594522 0.2889093 0.4401433
0.32367435 0.5659202 0.51616865 0.40869257 -0.2931134 0.6759664 1.1906325 0.53554636
0.4588036 0.040994413 0.6335323 0.3820527 0.66228575 0.3725155 0.3183962 -0.26399472
-0.34015426 -0.4910513 0.36798888 0.42050943 0.085709594 1.7798467 0.19483256 0.17676511
0.31314886 -0.3494425 -0.71610874 -0.009031668 1.1305496 0.64573693 0.4630662 0.0018305366
0.08545258 0.16566342 0.736006 -0.5921885 1.4213398 0.4213533 0.13244955 1.5935239
0.86596733 1.1662568 -0.57906955 0.7473537 0.77399933 0.051951177 -0.83839506 0.1611273
0.33042243 0.5906247 0.2649397 -0.36141688 0.06868697 1.1481332 0.29571468 -0.729657
-0.008332225 1.053847 0.19958486 0.66588837 0.9292005 0.8711131 0.9696579 -0.40980777
-0.12822165 -0.23565002 0.041717816 -0.40842754 -0.042462625 -0.02308979 0.57026577 0.38505006
-0.44006112 0.029120905 -0.05675418 0.24845421 0.3000681 0.5213334 0.026303029 0.48714378
0.5089867 0.40901697 0.48283225 0.6766683 0.3175985 0.6560698 0.28654906 0.47066715
0.7864443 0.58024293 0.11098998 0.023803582 -0.85602087 0.037416913 0.15846436 0.24376845
-0.049587805 0.5601717 0.37207508 0.35517696 0.6166001 0.27564386 -0.36204416 0.63255847

decoder.2.weight f4 [39, 128]
00000000: e9a0 c53e 3024 323f d868 57be 75f3 493d
00000010: 071e 6dbd 682f 113f 8bc4 233f 80fd 873e
00000020: e465 533e a133 9b3e 81d0 ae3e 52f6 c83e
00000030: 856e bcbe 0086 ebbe ec35 c33e 49c1 e73e
00000040: 9189 043f bc39 073f 41e6 84be 33a4 c8be
00000050: 4a2d ef3e eb71 7a3e 522d e93d 7799 18be
00000060: d27c 58bd 138d 94bd 799e 9abe 7c4f 21be
00000070: fd49 203f fa55 123e ea4d 2bbd e7a4 3abe
00000080: ca1a a5be b68c 263e 2d9b 24be e7eb 12bf
00000090: 7c86 023f ce20 63be bf88 543e 7e34 f7bc
000000a0: 94e1 9e3e d887 643e 57fd 363f 8b9b 403e
000000b0: b461 203e 5609 94bd eff1 d0bd a981 1fbd
000000c0: 2916 e4be 974f 213e fd95 523f 6938 de3e
000000d0: 95ac 73bf 0847 3fbe 0703 61be 2343 88bd
000000e0: c1a1 e5bd 7c73 ed3e b2a4 1b3e e448 153f
000000f0: 3224 46be 48c8 f7bd 1b45 97bd 24b7 2abf
00000100: 9169 f53d 9e05 fdbe 5d41 c8be a6aa c93d
00000110: 9325 dfbf d601 173f e26f fa3d ae90 043e
00000120: 39b3 df3e 2444 d03d 9b30 903e 7303 e03e
00000130: dae6 343e a0e5 8fbe d257 2ebf 0bf0 a13e
00000140: 7b9c ec3e 6f7f bfbe 008d 2bbe 1aa1 0e3e
00000150: 934b 57bf be1a 263e e0dd 133e acad f43e
00000160: 24f5 7e3f 9f9d 263e 20b3 283e f369 3a3d
00000170: e0b0 d33e adaa d73d 9fef 763e 58cd b43d
00000180: 43db 943e 2c7c 353f e5d2 b93e f7db 753d
00000190: 9bb6 b03d 248d 833d 9669 dc3e 7fa4 223f
000001a0: fb6a b93e 81d9 59be df03 cc3a 2133 20be
000001b0: 6aae 05bf 2f3a 2bbe 0a6f 193e 1b4b 4b3e
000001c0: 20ee 4cbe 8fdb 91be 93db 953e e29e 85be
000001d0: 294a 613f 3e65 1dbd d331 803e d1c5 f4be
000001e0: ba87 84be 132d d03e 0563 1b3e 5ce8 16be
000001f0: 4bea bbbe 9faa a53e b9b3 6a3f 220f ee3c
00000200: 0d14 393f 0dfb 63be 7ba4 b43e c9b6 d9be
00000210: a54a 563f 835c 473e a61e 2a3e fa8f 3f3c
00000220: dd45 98bd 929c b73e cbcc c13e 7bcb 073f
00000230: 69e8 1b3f 6922 a33e f3c4 203e 1e4f 00bf
00000240: dd87 3cbf 6b90 9cbe 876b a9be 9918 2a3e
00000250: 3705 333d cd52 9f3e cba0 4ebe 4432 6abf
00000260: 794a f2bd 71c3 e13e d10a 7f3e a433 b9be
00000270: fdfa fcbd 685e 26bc 3c8e e8be 3f5e 2bbf
00000280: 446b e0bd c387 be3e dc3b a13e 69a7 573e
00000290: ab84 e3be 5321 6bbe 028f c53d e146 963f
000002a0: 849a 923e e00d 28bf 342a 013e e693 a33e
000002b0: befa c4bc 1d2a 61be b9ce ef3d a9e2 40bc
000002c0: e96e 8d3d 8390 29bd 3fb5 723e ca56 803f
000002d0: 82f3 143e 469d 80ba 9e17 35bd c095 d33d
000002e0: f6a3 63bd 87d6 8b3f b7f7 003e 75a1 bebc
000002f0: ba25 cebe db2e 0e3e 2888 72be bbf6 97be
00000300: 0c47 91bd cd0e 9f3d 7996 8bbe 04ab f9be
00000310: 7d75 153f 379f 013f 87a6 f53e 72f5 513e
00000320: 9211 033e 03e1 3ebf a1ca 6c3e e533 603e
00000330: 7c28 4a3f daf9 28bf 897d dbbe edb6 9cbf
00000340: 9cce 3a3e ddb4 a2be f12d 09bf 3ad2 61be
00000350: cdd7 d6be 1cd6 a2bf 353e 93be 878d 523e
00000360: 5a1e 443e 77de 39be a4d5 5b3f 0647 bd3e
00000370: cef8 18be eaf2 ba3e a314 2ebd cba9 06bf
00000380: f98b babe 1af2 bfbe 4286 e9be 279b de3d
00000390: 30a0 adbb 654b 263e ab37 183e 8015 b3be
000003a0: ca61 49be 6872 713e b279 21bf 9a59 af3e
000003b0: af57 8e3d 1c9e 0c3e 72ce 283e 6ebb fc3d
000003c0: 4380 26be 61fa 7cbe 4b67 f7be b841 813e
000003d0: a0e1 efbd 1756 3c3f 9544 483f 702e 243d
000003e0: f3e2 e63e fcb6 23bd f4ce 0a3e 7b8c 0dbe
000003f0: 3ccf b4be f31f f0be a17e 10bc 2f83 a5be
0.38599327 0.6958647 -0.21036088 0.049304444 -0.057889964 0.5671296 0.63971776 0.26560593
0.20644337 0.30312827 0.3414345 0.39250427 -0.3680307 -0.4600067 0.38127077 0.45264652
0.5177241 0.5282247 -0.2595692 -0.39187774 0.4671424 0.24457519 0.11385597 -0.14902292
-0.052853413 -0.0725347 -0.3019903 -0.15752977 0.626129 0.1429061 -0.04182235 -0.18226968
-0.32247 0.16264614 -0.1607482 -0.5739121 0.50986457 -0.22180483 0.2075529 -0.030176397
0.31031477 0.22317445 0.71480316 0.18809335 0.15662271 -0.07228343 -0.10202395 -0.038942013
-0.44548157 0.15753017 0.82260114 0.43402413 -0.95185214 -0.1867944 -0.21973811 -0.0665343
-0.11212493 0.4637717 0.15199545 0.5831435 -0.19349745 -0.120987475 -0.07386228 -0.666857
0.11983026 -0.49418348 -0.39112368 0.09847002 -1.7433342 0.58987176 0.12228371 0.12945816
0.43691424 0.10169247 0.28162083 0.43752632 0.17666188 -0.28104877 -0.68102753 0.3162845
0.46213135 -0.37401912 -0.16753006 0.13928643 -0.8409969 0.16221139 0.14440107 0.4778875
0.99592805 0.16271065 0.16474581 0.045511197 0.41345882 0.10530601 0.24114846 0.08828229
0.29073533 0.70892596 0.36293712 0.060024228 0.08628579 0.06423405 0.43049306 0.6353225
0.36214432 -0.21274377 0.0015565119 -0.15644504 -0.5221926 -0.16721414 0.14983764 0.19852869
-0.20012712 -0.28487822 0.29269084 -0.2609778 0.88003784 -0.03842663 0.25038013 -0.47807172
-0.258848 0.4065939 0.15174492 -0.14737076 -0.3670219 0.32356736 0.91680485 0.02905995
0.7229622 -0.22263737 0.3528174 -0.42522267 0.8370765 0.19468884 0.16613254 0.0116920415
-0.074352 0.3586164 0.37851557 0.5304486 0.60901505 0.3186219 0.1570013 -0.50120723
-0.7364481 -0.30578932 -0.3308985 0.16610946 0.043706145 0.3111786 -0.20178525 -0.9148295
-0.11830611 0.44094422 0.2490647 -0.3617221 -0.1235256 -0.010154344 -0.45421016 -0.66940683
-0.10957959 0.37212953 0.31490982 0.21059956 -0.44437155 -0.22961931 0.09646417 1.174038
0.2863351 -0.6564617 0.12613755 0.31948775 -0.024045344 -0.21988721 0.11709351 -0.01177279
0.0690592 -0.041397583 0.23701952 1.0026486 0.14546016 -0.0009812496 -0.044211976 0.10331297
-0.055576287 1.0924844 0.12594496 -0.023270348 -0.40263158 0.13885061 -0.23684752 -0.29680428
-0.07093629 0.07766495 -0.2726324 -0.48763287 0.583824 0.5063357 0.47978613 0.20503786
0.12799671 -0.7456209 0.23124172 0.21894796 0.78968024 -0.66006243 -0.42869213 -1.2243325
0.18242878 -0.31778613 -0.53585726 -0.22052851 -0.41961518 -1.2721591 -0.28758398 0.20561801
0.19152203 -0.1815127 0.85872865 0.3696825 -0.14938661 0.36513454 -0.04250015 -0.52602834
-0.36434916 -0.37489396 -0.45610243 0.10869437 -0.005298637 0.16239698 0.14864986 -0.3497734
-0.1966621 0.23578799 -0.6307632 0.34248048 0.06950318 0.13732189 0.16485003 0.12340437
-0.16259865 -0.24704887 -0.48320994 0.25245452 -0.117129564 0.7356886 0.7822965 0.04008335
0.45095024 -0.03996943 0.13555509 -0.1382312 -0.35314357 -0.46899375 -0.008819253 -0.32326648

decoder.2.bias f4 [39]
00000000: df3d 7cbf b473 53bf 2b08 77bf ff31 83be
00000010: e3e8 0bbf 245e 00bf 7671 aabe 7e9d 6dbf
00000020: 2088 4cbf 55ad 41bf 0f5a 77be 9575 1ebf
00000030: 170f 90be 6edf 34bf 8fbe 8cbf 23a7 76bd
00000040: 4170 adbe 5574 31bf 34c8 e5be 1689 83bf
00000050: 64b9 6bbf c263 3bbf df19 3abe 5988 61bf
00000060: 29b9 31bf 53dc 18bf a7e4 8dbf 6e79 33bf
00000070: c65b d5be 173f aebf 6eaf afbd d8ff f1be
00000080: a68d 64bf 1f7b 0bbf cc5f 68bf 5cd9 5fbf
00000090: 7277 e7be 8e7b 0bbf c487 8ebf
-0.9853191 -0.82598424 -0.9649684 -0.25624081 -0.5465223 -0.5014365 -0.3328969 -0.9281844
-0.7989521 -0.7565511 -0.24155448 -0.61898166 -0.28136513 -0.70653427 -1.0995654 -0.060217988
-0.33874705 -0.69318134 -0.44879305 -1.027621 -0.9207976 -0.73199093 -0.18173932 -0.88098675
-0.69423157 -0.5971119 -1.1085404 -0.7010716 -0.4167158 -1.3613003 -0.085783824 -0.47265506
-0.8927864 -0.5448474 -0.90771174 -0.8744104 -0.45208317 -0.54485404 -1.1135182

classifier.0.weight f4 [128, 64]
00000000: aa13 c6bd 6757 36bd 85db 3ebd ceec 59be
00000010: 8828 a13d dc74 19be b3f9 883d ae72 adbc
00000020: 7ecd c03c 0cb5 ce3d 1f38 723c 3c86 483d
00000030: b29a ed3c 48ac 49bd 5f6b e1bc bd11 c2bd
00000040: df64 f1bd dec7 07bc 8184 b3bd f7b0 e4bc
00000050: 7ea3 75bd 6d69 dfbd 5e44 55bd 826f eabd
00000060: 4508 57bd b50e 9dbd 3b25 913d 4fe2 6dbd
00000070: 6d31 06be 1485 babd 889d ef3c 3f41 8cbc
00000080: aff8 653d 719a 44bd edf1 cf3c d07b 08be
00000090: b87c d5bb 2a2f 573d b3cc acbd 8daa 85bd
000000a0: 1988 9cbd 6562 c2bd b316 b3bd 7909 19be
000000b0: b4a7 02be 056c 79bc 019a 45bd c82f 67bd
000000c0: 2287 82bd ff8e 14bd 3473 513d 3ad7 19bc
000000d0: 07f4 403d ac01 24bd b7e8 243d e030 923c
000000e0: c068 683c a91a e3bd 3300 343c 68d8 2d3c
000000f0: 4259 11be 7a67 06be c992 57bd e6f3 cebd
00000100: a58a 8ebd 2959 8e3c fd72 98bd b0f4 2fbe
00000110: 52ba d13e 1251 da3d 6d2c c0be 8f52 533e
00000120: 3c8d 14bf 50e1 043e e688 933e 670f 24be
00000130: 2425 92be 06e6 aabe f396 bb3e 2ed9 3bbc
00000140: ae17 5d3e a85f 61be 6d05 9b3e b86e 27bf
00000150: 77c8 653d 7ea7 41be 6507 45be 7e59 2d3e
00000160: 7423 d0bd 704b d83c d7ef f13c c2de e83d
00000170: 3dfe 30be 9978 8abd 3354 2c3e 3255 5bbf
00000180: e318 6f3d 5424 24bd 899f 00bf 6770 113e
00000190: f49a e4bd 0209 9f3d 4765 e7bd 51aa 1c3e
000001a0: 02ed 4b3e c7db 893e 2f3f 0ebe 90a6 c53e
000001b0: 5338 0f3d 9a54 88be 5864 39bf d1db b53e
000001c0: 0288 893d 6afc aa3d 977a 1b3e 4b86 ad3e
000001d0: c3c0 2bbf 7e7c 59be 6486 a5be 8d4c 983e
000001e0: f7c6 933d 345a 9a3d c089 453d e4ec 35bd
000001f0: 500e b6be d14d 04bf 6cb0 adbe a5de 913e
00000200: 4df2 32bd 000d a4bd 6b4e ed3d 5ec4 8ebd
00000210: d674 803e ca43 cc3d 5d57 f83c 9a84 0ebe
00000220: 0ac5 b3be fb78 44bd 5cc2 923d e465 a5be
00000230: 6130 e93d db40 53bf 270b 493e 71cb e43d
00000240: 5a4a b93e 1d9f d0bd 6a2f c33e df2b d0bc
00000250: a9be 8e3b 4d42 a03e cb49 a2bd 750c febd
00000260: ee79 693e 5aea d9bc 52df 9cbc 5567 da3e
00000270: 15dd e6be 8579 043d 9479 00bd fb5a ab3c
00000280: 2227 f4bd d098 cfbe 3c52 abbe 2dbd ce3d
00000290: 03cc 623d 7f82 b1be e8b0 b0bd 7744 6f3c
000002a0: 6c57 cd3d ba16 f23d 91d1 a03e 6397 11bd
000002b0: 6dd8 ba3d f007 743e 6d6b 4ebe a36b d93e
000002c0: 7dcc 5e3e a8b3 003d 31f5 bb3b 7f4b 183e
000002d0: ae0a b9bd 5228 483d 0ec5 dbbe c354 943d
000002e0: d57e c1bd 76d3 993b 2939 773e f877 393d
000002f0: 98eb 84be 8461 35be a2de 0c3c 1627 1f3e
00000300: 6944 3bba c232 59bd 276d 20be 5f29 453c
00000310: 79e7 1e3e 9442 8f3c 57ea b33e 7706 153e
00000320: 36cb 1a3d d542 b0ba 48af 403e 942a 8b3e
00000330: 82f9 bf3e 87cd fb3d ac77 02be 041a 313e
00000340: 0445 f8bd 9a73 74be 88c8 d5bc c7cf 24be
00000350: 66b4 93bd fbe1 713e 987a 0dbf 0bac 2bbc
00000360: 96ab b03e d6b5 66be 6013 93be 0634 80bd
00000370: b9f4 823d 51aa 3dbd 21a5 4f3e bf2a e73d
00000380: eb6f 113e 21eb 4d3e 5ed4 01bd ca30 14bd
00000390: 4a8b d13d d263 9d3d c2d2 f2be 57e5 99bc
000003a0: 59f5 7cbe d55e 943e 0297 f5be 9529 9dbe
000003b0: c543 80be 1e9a 193e 1a9e f43d a763 afbe
000003c0: 7f35 85be 81ed 473e bb77 893e c5c8 2d3e
000003d0: 93b8 dfbc 4422 743e b468 7e3d 239d 97be
000003e0: c865 bfbd fe00 423d 54a0 61bd 4308 18bd
000003f0: c289 183d 8901 85be 1ecf e1be 771c b9bb
-0.09671719 -0.044516947 -0.04659607 -0.2128174 0.07869059 -0.14985985 0.06688251 -0.021172848
0.023535486 0.10093126 0.014783888 0.04895614 0.029004429 -0.049236566 -0.027517019 -0.094760396
-0.11786818 -0.008287398 -0.087655075 -0.027916415 -0.05997037 -0.1090878 -0.052067153 -0.1144705
-0.05249812 -0.07668821 0.07087179 -0.058077153 -0.13104792 -0.09107414 0.029249921 -0.017120956
0.056145366 -0.04799885 0.025383914 -0.1332848 -0.006515112 0.052535214 -0.08437481 -0.065266706
-0.07643146 -0.094914235 -0.08744564 -0.1494502 -0.12759286 -0.015223508 -0.048242573 -0.056442052
-0.06373431 -0.036269184 0.051135257 -0.009389693 0.047107723 -0.040040657 0.040260997 0.017845571
0.014185131 -0.110890694 0.010986376 0.010610677 -0.14194205 -0.1312541 -0.05263022 -0.10105114
-0.06960038 0.0173765 -0.07443807 -0.17183185 0.40962464 0.10659994 -0.37533894 0.20636962
-0.58028007 0.12976575 0.28815383 -0.160215 -0.2854396 -0.3337862 0.36638603 -0.011465354
0.21591064 -0.22009146 0.30277577 -0.6540332 0.05609938 -0.1891155 -0.19241102 0.1692867
-0.10163012 0.026403159 0.02953331 0.11370613 -0.17284484 -0.067612834 0.16828994 -0.8567687
0.058373343 -0.040073708 -0.5024343 0.14203034 -0.111623675 0.0776539 -0.11298614 0.15299346
0.1991463 0.2692549 -0.1389129 0.3860364 0.034965824 -0.26627046 -0.7241874 0.3551927
0.067153946 0.083489254 0.15183483 0.3389152 -0.67091006 -0.21238896 -0.32329094 0.29745904
0.07215684 0.07536736 0.04822707 -0.04441537 -0.35557795 -0.5168124 -0.33923662 0.28490177
-0.043688107 -0.08010292 0.11587223 -0.06971048 0.2508914 0.09973867 0.030315096 -0.13917771
-0.35111266 -0.04796694 0.07165977 -0.323043 0.11386181 -0.82520837 0.1963316 0.11171616
0.36189538 -0.101865984 0.38122112 -0.025411544 0.0043562246 0.31300583 -0.07924231 -0.1240472
0.22800419 -0.026601005 -0.019149456 0.4265696 -0.45090547 0.032342453 -0.031365946 0.020917406
-0.119215265 -0.40546274 -0.33461177 0.10094676 0.055370342 -0.34669873 -0.08627492 0.014603726
0.1002644 0.11820741 0.31409886 -0.035544764 0.09123311 0.23831153 -0.20158167 0.42464933
0.21757694 0.031421334 0.005736016 0.1487255 -0.0903524 0.048866577 -0.42923778 0.072427295
-0.094480194 0.0046943976 0.24142899 0.045280427 -0.25960994 -0.1771298 0.008598002 0.15542254
-0.0007143678 -0.053026922 -0.15666638 0.012033789 0.15517987 0.017487802 0.35139725 0.14553247
0.037791453 -0.0013447652 0.18816864 0.27180922 0.37495047 0.122950606 -0.12740964 0.1729508
-0.12122539 -0.23872223 -0.026096597 -0.16094886 -0.07212143 0.23621361 -0.5526519 -0.01047803
0.3450591 -0.22530302 -0.2872572 -0.06259923 0.063943334 -0.046305005 0.20277835 0.1128745
0.1420285 0.20109226 -0.03169667 -0.03617934 0.102316454 0.07685055 -0.4742642 -0.018786116
-0.24702968 0.289786 -0.47966772 -0.30695787 -0.25051704 0.15000197 0.11944218 -0.34255716
-0.26017377 0.19524194 0.2684916 0.16971119 -0.027309692 0.23841196 0.06211157 -0.29612073
-0.09345585 0.047364227 -0.05508454 -0.037117254 0.03724075 -0.25977734 -0.4410333 -0.005649145

classifier.0.bias f4 [128]
00000000: 7cc5 a2bd b9a9 d3bd d89d a83c be0e 0f3e
00000010: abe8 cbbd 9143 97bc 32ed d53d a974 473c
00000020: e0d9 b53c a823 d63d ab0e 7c3d 5abf f9bc
00000030: aa2b 0b3e e2ae 043e 531c f8bd 4558 583d
00000040: e8f9 a73c 71f0 45bc 82e6 203e 135c d93d
00000050: e890 043d 2bb9 dcbc 458d 96bd 28c6 1c3c
00000060: b834 4ebd ee4d c43d efb9 d53d 6026 d43d
00000070: 7263 753d fb5a 513d db59 bf3d d59f 603c
00000080: 2517 1b3e bd92 aabd feea d13d 8af1 073e
00000090: 8657 2dbe 4490 cd3d ca88 603c 5ddb d4bc
000000a0: f17d ddbc b59d a3bc 7a07 903d a958 2abd
000000b0: 947c 17bb eea7 8a3a e8f5 4abd 8c24 fb3d
000000c0: 9ea6 a63d b1df 89bd 6058 bebd ebc8 d1bd
000000d0: e932 3ebe 8e68 06bd f2b1 cc3d 95ab 143e
000000e0: ad33 9abc ac35 aabd 0297 d23c 11d4 283c
000000f0: 017e 8b3d 45fe d83d 42cb f23d 349e 08be
00000100: a6cf 1b3e f746 2bbe 145a 6d3b dd86 a3bc
00000110: fdc3 cd3d 6115 74bd de47 293d 9d8b 263e
00000120: 401e 523d 9985 0d3e 2e65 283d bf9c 213d
00000130: 98e3 123d 460d 6c3b ca84 d13d 901e 95bc
00000140: 05de 803d 36f9 8d3d 4325 a83d f302 9ebb
00000150: 1d1e ca3d 9a5d 7f3b 92a1 db3d f6d9 e23d
00000160: 7d81 d23d 6b44 1abe c63a 063d 1b0a a93d
00000170: dc65 d43c bc15 c63d accf a5bc b1b4 613d
00000180: e012 d0bd 82fe f33c 1324 1a3e 4a59 33bd
00000190: 0182 1fbe 3c89 073e c6e1 063e 06a1 173d
000001a0: 50cb 7bbd a9d9 043c 0dbd 0fbe 0014 723d
000001b0: aff6 9dbd 8438 813d 8dfb f6bd a9a6 8e3d
000001c0: 1e5b 0abe 289b c6bd bae4 2f3e 6afc d7ba
000001d0: 521d d5bc c50b 0e3e ed15 81bd 9efb 40bd
000001e0: d28f 52bd bab4 8e3d 02b1 173d a9d7 fd3c
000001f0: 7c05 2b3d 2a01 373e 0a90 a1bc 2212 d03c
-0.079478234 -0.103351064 0.020583078 0.13970467 -0.09956487 -0.018464835 0.10445632 0.01217381
0.022198617 0.1045602 0.061537426 -0.030486751 0.13590875 0.12957337 -0.121147774 0.052818555
0.020504907 -0.0120812515 0.15712932 0.10613265 0.032364756 -0.026943764 -0.07351164 0.0095687285
-0.050343245 0.095851764 0.10435855 0.10358882 0.05990929 0.051112156 0.093433104 0.013709982
0.15145548 -0.08328769 0.10249899 0.13275734 -0.16927919 0.10037282 0.013704488 -0.025983507
-0.027037593 -0.019972662 0.07032676 -0.04158846 -0.0023115026 0.0010578611 -0.04955092 0.1226283
0.081372485 -0.06732119 -0.092942 -0.102434 -0.18574108 -0.032814555 0.09994878 0.14518578
-0.018823469 -0.08311018 0.025706772 0.010304467 0.06811143 0.10595373 0.118551746 -0.133416
0.1521593 -0.1672629 0.003621702 -0.019961769 0.100471474 -0.0595907 0.041328304 0.16264196
0.05129838 0.13820495 0.041112117 0.039456125 0.03586158 0.0036018654 0.10230406 -0.01820305
0.06292347 0.06932299 0.08210232 -0.004822129 0.09869025 0.0038965703 0.107241765 0.11076729
0.10278604 -0.15065162 0.032770894 0.082538806 0.025927477 0.09672114 -0.020240627 0.05510396
-0.1015985 0.029784445 0.15052824 -0.043786325 -0.15576936 0.13235945 0.13172063 0.0370188
-0.06147319 0.008108535 -0.14036961 0.059101105 -0.07713067 0.063096076 -0.12059698 0.06965382
-0.13511321 -0.096975625 0.17177096 -0.0016478423 -0.026014958 0.13871677 -0.0630301 -0.04711496
-0.05140669 0.069680646 0.037034042 0.030986624 0.041753277 0.17871538 -0.019722003 0.025399271

classifier.3.weight f4 [5, 128]
00000000: 799f f73b 77f9 7fbe ce01 0d3e e92e 1abe
00000010: 3542 c2bd 555e 1a3e 6b97 8cbd 390d 15bd
00000020: 0498 853d 5130 18be 84a0 d8bd 67d7 35be
00000030: 569b e4be d857 20be c90e 65be d3da 703e
00000040: 606a 53be 39cf 8e3d d446 65be 5c08 2abf
00000050: caf3 463e 6b4c 2cbf 7091 e6bd 691e 66be
00000060: 48c4 41be 33c9 21bf 22ea df3c 9fd2 793e
00000070: f4ea 073e 87f2 083e cb19 58bd 3a99 273e
00000080: e821 acbe 56f4 2b3e a76c 7ebe 156c e1bd
00000090: ee8a b93c 1cb2 f43d d52a f4bd 3af1 69be
000000a0: c1ca d13e 3ec8 77be ac9a da3b 5398 a33e
000000b0: 8c37 983e e0d6 9abc 0b3a 793e 65ed b8bd
000000c0: e51e c53e 8a96 c3bd d307 c63c 762d d83d
000000d0: 78fe 26bd 6b13 a6bd b058 3bbe fece 68bd
000000e0: ea8c 2abe 54e8 863e 4d64 123e c919 313d
000000f0: 27c1 06be 32b3 523e 672e 96bc 22ef b23b
00000100: 1acd 07be 4594 313d 6cab ed3d d10e 6dbd
00000110: 99e8 c2be 65ff 8c3e c3c2 103e 7257 9d3e
00000120: d7cd 12be 7160 48be 471f a43c edda 943e
00000130: 345e d7be b503 de3e a08a 5a3d 69db 393d
00000140: 8f33 b2be 43fe c73e cbb0 1fbe 9bee 35bd
00000150: 9226 50bd 7578 8bbe a6b5 65bd 617b 34be
00000160: 48a5 a23e 053a 953c b0aa edbd 5cff 5d3e
00000170: 3333 a1bb a963 42be 6998 48bd fb2f 36be
00000180: 1fa3 e5bd 67df 8abd 9329 29be 6e0a 163e
00000190: 07b8 073c fb70 c93d c3e6 dabd 13d6 933e
000001a0: 7d26 503d 1e33 b4be 1d0c 813c 6e8c 963b
000001b0: 8a94 9bbd 1451 99bd 570d 5dbd 2555 13be
000001c0: 65ce 383c e13c b9bd e699 a7be 4c2b 5f3e
000001d0: da18 5fbd f526 14be 478f 62bf 863b 41bd
000001e0: 40d3 813e 2253 edbe 6df5 8abd fc80 c63e
000001f0: 2301 11be 6b95 843e 4920 433e 438d be3c
00000200: 7fda 80bd 1284 00bf 2c8b 91bd 27d2 c7be
00000210: ae4d 09bf 9994 a03d 1ef1 99be 3427 43be
00000220: 80dd 173e e3d9 b43e 715c abbe 73bb e8be
00000230: 19fc 043e 587d 38bd b897 f53d deec 6abe
00000240: 00e1 ae3e bf03 e6bd 3611 583e 4f17 d43e
00000250: 8c0a 2d3e 67e6 933d e89d 87bd 860d 833e
00000260: 1dc3 6a3d 1ac7 783d 7a27 f4bd 4b92 a9bd
00000270: 2b27 a6bd bf7f 203e a007 bdbe c0a8 c13d
00000280: 5f35 3a3e d7b9 343e bb42 333d 62c9 98bd
00000290: 8454 86bc f00d 99be c8ea 9f3e 4ec4 88bd
000002a0: 57bf 82be fba1 fcbc a398 84be a2ce 07be
000002b0: 151c 50bd a107 a23e 17d8 15be 13fb 653e
000002c0: 3ddc 2ebe 45ae d1bd 6bf4 a13c 6b30 d3be
000002d0: bca9 8abc 233a 63be 4cbc 873e e153 1a3e
000002e0: 407e 2cbd d64d 92be 3854 c73d 8153 c3be
000002f0: 38a6 a03e 3fb9 56be 80da 8d3d 7cd3 403d
00000300: e73d 89be 2040 13bd 16d7 8f3d 26df f5be
00000310: 1eac 433e 7726 32be fdbe 983c 5cbe 48be
00000320: 6bb0 e8bd 961b b13d 2c6b 7cbe fe78 1f3d
00000330: cd8a 9ebb 3bff 85be 4479 663e 48a0 d5bb
00000340: 2490 493d bac0 63be 88d7 743d a90c f13e
00000350: 979d a1be 8b0a ffbd 8b20 ccbe 9d33 d1be
00000360: 634f 1fbe cff3 14bd bb5d 163d f178 73be
00000370: a47b b53e 42ec 0a3e 4ebb a8be ff4a a3be
00000380: 2439 a1be dcd2 f2be 6392 82be a3ca f2bd
00000390: 7018 48bd 325b 32be f18f 103d 5d32 15be
000003a0: d0cf 303e ff65 1e3e 2771 29be d6b4 2bbe
000003b0: 4bc1 d9bd 7ac4 a63d 328e 59bd 5efd 953e
000003c0: 8478 17bd 6f4a c23d 64f5 073e c1d5 08bf
000003d0: 32ff 913e 9a16 92be f896 2f3c 5fa3 93bd
000003e0: 3bd9 4dbe cf9b 0c3f 8aac f93e 51e5 c8bd
000003f0: 8197 c2be aaf4 11bd ca7d 24be 673b c4be
0.0075568524 -0.24997507 0.1377022 -0.15056957 -0.09485284 0.15075047 -0.06864818 -0.036389563
0.06523135 -0.14862181 -0.10577491 -0.1775795 -0.44649762 -0.1565851 -0.22368921 0.23520975
-0.20646048 0.06973118 -0.223903 -0.66419005 0.19428936 -0.67304105 -0.11258209 -0.22472538
-0.18922532 -0.6319763 0.027333323 0.24396752 0.13273221 0.13373767 -0.052758973 0.16367045
-0.33619618 0.16792426 -0.24846135 -0.11006943 0.022649255 0.11948034 -0.11922232 -0.22845927
0.40975 -0.2419748 0.0066712704 0.31952152 0.2972988 -0.018901289 0.24338548 -0.090296544
0.38500133 -0.095501974 0.024173653 0.10555546 -0.040770024 -0.081091724 -0.1829555 -0.056838028
-0.16655317 0.26349127 0.14296074 0.04323748 -0.1315962 0.2057617 -0.018332673 0.0054606358
-0.13261834 0.04335429 0.11604962 -0.05787546 -0.38068083 0.275386 0.14136796 0.30730778
-0.14336334 -0.1956804 0.020034445 0.29073277 -0.4206406 0.43362203 0.05335486 0.04537526
-0.3480496 0.39061174 -0.15594785 -0.044417005 -0.050818034 -0.2724034 -0.056081437 -0.1762519
0.31766725 0.018216142 -0.11604822 0.21679443 -0.0049194335 -0.1898333 -0.048973475 -0.1779174
-0.112127535 -0.06780892 -0.16519766 0.14652416 0.008283622 0.098360024 -0.106885456 0.28874263
0.050817955 -0.3519525 0.015752846 0.0045943772 -0.07596691 -0.074861676 -0.0539678 -0.14387949
0.011279677 -0.09044815 -0.32734603 0.2179386 -0.05446706 -0.14467986 -0.88499874 -0.047175907
0.25356483 -0.46352488 -0.067850925 0.38770282 -0.1416059 0.25895247 0.19055285 0.023260718
-0.06291675 -0.50201523 -0.07106623 -0.3902752 -0.53634155 0.07840843 -0.3006677 -0.19057924
0.1483059 0.35322484 -0.33468965 -0.45455512 0.12986793 -0.045041412 0.11991829 -0.2294192
0.34156036 -0.11231183 0.21100315 0.41424033 0.16898555 0.0722168 -0.06621915 0.25596255
0.05731498 0.060736753 -0.11921592 -0.08279856 -0.081129394 0.15673731 -0.3691988 0.09456015
0.18184422 0.17649017 0.04376481 -0.07460286 -0.016397722 -0.29893446 0.3123381 -0.06678067
-0.25536606 -0.030838957 -0.25897703 -0.13262418 -0.05080803 0.31646445 -0.14633213 0.22459058
-0.17076202 -0.102383174 0.019769868 -0.41247877 -0.016926639 -0.22190146 0.26510847 0.1507106
-0.04211259 -0.2857501 0.0973286 -0.38149646 0.31376815 -0.20969103 0.06926441 0.047076687
-0.2680504 -0.035949826 0.07023446 -0.4802181 0.19108626 -0.17397486 0.018645758 -0.19603866
-0.11361774 0.0864784 -0.24650258 0.038933747 -0.0048383237 -0.26171288 0.22507197 -0.006519351
0.04920973 -0.22241488 0.05977586 0.4707997 -0.31565544 -0.12453183 -0.39868578 -0.4085969
-0.15557627 -0.036365326 0.036710482 -0.23776604 0.35445893 0.13566688 -0.32955402 -0.31893155
-0.31488907 -0.47426498 -0.2550231 -0.11855056 -0.04885143 -0.17417601 0.035293523 -0.14569993
0.17266774 0.15468596 -0.1654707 -0.16768202 -0.10632571 0.08142944 -0.053114124 0.29294866
-0.036980167 0.09486853 0.13277203 -0.5345116 0.2851501 -0.2853287 0.010717146 -0.07208895
-0.20102398 0.54925245 0.4876445 -0.09809364 -0.38006213 -0.03563372 -0.1606361 -0.3832657

classifier.3.bias f4 [5]
00000000: 4800 b1bd 3281 373e c54d 91bc f2dd db3c
00000010: a71e 203e
-0.08642632 0.17920378 -0.017737279 0.02683923 0.15636693
